vit_mnist.pth (torch, 882772 bytes, 74 tensors)

pos_embedding f4 [1, 17, 64]
0	0x3ff4f8b3	1.9138397
1	0x3fbbbb75	1.4666582
2	0x3f9140c4	1.134789
3	0xc01c34fa	-2.4407334
4	0x3f64f119	0.89430386
5	0xbfbcc03d	-1.4746166
6	0xbeb0e99d	-0.34553233
7	0xbfc0ae95	-1.5053278
8	0xbf6be83c	-0.92151237
9	0x3fd89718	1.692111
10	0xbeed4683	-0.4634286
11	0xbf9cc1c6	-1.2246635
12	0xbf5347f7	-0.82531685
13	0xbea3d59f	-0.31998917
14	0xbf866022	-1.0498087
15	0x3f3d6b3c	0.7399175
16	0x3fd91e8d	1.6962448
17	0xbed3ed1c	-0.41391838
18	0xbe9a48b8	-0.30133605
19	0x3e64cbaa	0.22343317
20	0xbf874758	-1.0568647
21	0x3fd843dd	1.689571
22	0x3f65de73	0.89792556
23	0x3fe40dab	1.7816671
24	0x3fbba87f	1.4660796
25	0x3fb17e00	1.3866577
26	0x3f48f864	0.78504014
27	0x3fad330e	1.3531206
28	0xbd6c3864	-0.057670966
29	0x3e3eba8a	0.18625847
30	0xbeb443dc	-0.35208023
31	0x3f8f2b60	1.1185112
32	0xbfe2851c	-1.7696872
33	0xbf6375b2	-0.88851464
34	0xbeeb5d3e	-0.45969576
35	0x40086ac7	2.1315172
36	0x3da9e368	0.082953274
37	0x3d9a1f91	0.07525552
38	0x3e8ef82c	0.27923715
39	0xbf3532cf	-0.7078065
40	0xbfefa6af	-1.8722743
41	0x3f4efa79	0.8085094
42	0xbfc1e4e2	-1.5147974
43	0xbf5a54a6	-0.85285413
44	0xbfb90984	-1.4456029
45	0x4012947e	2.2903132
46	0xbfac1ece	-1.3446901
47	0xbe867702	-0.2626267
48	0xbf778363	-0.96684855
49	0xbf4504e8	-0.7696061
50	0x3d6ea596	0.058263384
51	0x3f2ef4ef	0.6834249
52	0xbf010d38	-0.50410795
53	0x3fef7199	1.8706542
54	0xbf20858e	-0.6270379
55	0xbf8cebe7	-1.1009492
56	0xbffe98b9	-1.9890357
57	0xbebbf27d	-0.3670844
58	0x3e670339	0.22559823
59	0x3e8cc656	0.27495068
60	0x3ed2976b	0.41131148
61	0x3ff88d6d	1.941816
62	0xbfa753e1	-1.3072473
63	0x3fcf41a5	1.6191908
64	0x3fe4de70	1.7880383
65	0x3fb9f45f	1.4527701
66	0x4024ce98	2.5751095
67	0x3fb968b0	1.4485073
68	0x3ea4cbdf	0.3218679
69	0xbccd70b5	-0.025078157
70	0xbf8f262d	-1.1183525
71	0x3fd2d8fa	1.6472466
72	0xbe675d0b	-0.22594087
73	0x3f21c8f7	0.63197273
74	0x3dfb021b	0.12256261
75	0x3df5392f	0.119737975
76	0x3f6e3d35	0.93062145
77	0xbfa4b91c	-1.2868991
78	0xc062bdee	-3.5428424
79	0xbffb4cb6	-1.9632785
80	0x3f4b888a	0.7950522
81	0xbf1ec2ae	-0.6201581
82	0xc034ef1f	-2.8270948
83	0xbf414504	-0.75495934
84	0x3f8cc421	1.0997354
85	0x3f3bc1a3	0.7334234
86	0x3fd4e6cd	1.6632935
87	0xbeac22f1	-0.33620408
88	0x3e939fae	0.28832763
89	0xbf6adf68	-0.9174714
90	0xbfc90831	-1.5705625
91	0xbe4e5cfe	-0.20152661
92	0xc02ff677	-2.749418
93	0xbfbf2df8	-1.4935904
94	0x4015b7f6	2.339353
95	0x3bca2dcb	0.0061700097
96	0xc0706086	-3.7558913
97	0x3f1b4290	0.6064844
98	0x3faafcd3	1.3358406
99	0xbd973ac2	-0.07384254
100	0x3fbf72dd	1.4956928
101	0x3f3c9490	0.7366419
102	0x3f93048b	1.1485761
103	0xbdbe1d74	-0.092829615
104	0x3f2e9b40	0.6820564
105	0x3f1cc5f2	0.6123954
106	0x3f8f3521	1.1188089
107	0x3f402fd6	0.7507299
108	0xbdd69a57	-0.10478657
109	0x3ff47aa8	1.9099932
110	0x3eccf3a6	0.4002964
111	0xbf4953a4	-0.7864325
112	0xbfcdedb1	-1.6088163
113	0xbf0ea3d8	-0.55718756
114	0xbedc5732	-0.43035275
115	0x3dfc78a3	0.12327697
116	0x3f1d16a1	0.61362654
117	0xbe26f723	-0.16305213
118	0xbf09ca5c	-0.538244
119	0x3ed9c83a	0.42535573
120	0xbdbe5573	-0.09293642
121	0x3f822516	1.0167568
122	0x3e7a10ea	0.24420515
123	0x3faa45ad	1.3302513
124	0x3fce8104	1.6133122
125	0xbde5dd18	-0.11223811
126	0x3f547972	0.8299781
127	0x3f00babf	0.5028495
128	0x402b4484	2.6760569
129	0x3f978130	1.18363
130	0xbff7cbac	-1.9359031
131	0xbfaf845d	-1.3712269
132	0x3e9c4d72	0.30527836
133	0x3fe697d5	1.8015085
134	0x3f89f6e7	1.0778474
135	0x3f510912	0.81654465
136	0x3f95cac8	1.1702509
137	0x3c88cb75	0.016698578
138	0xc02baf97	-2.6825922
139	0x3fe3af0c	1.7787795
140	0xbee09531	-0.43863824
141	0x3f9a20d2	1.2041266
142	0xbf3d555b	-0.7395837
143	0x3edbe7d7	0.42950317
144	0xbfe21b16	-1.7664516
145	0x3fb28265	1.3946043
146	0x4041c168	3.0274296
147	0x3fec9a3e	1.8484571
148	0x3e9628dd	0.2932805
149	0xbe28f902	-0.16501239
150	0xbf756087	-0.95850414
151	0x3edb5e76	0.42845505
152	0x3f1a3ef7	0.60252327
153	0x3f2246a9	0.6338907
154	0xbe410c83	-0.18852429
155	0x40112fe2	2.2685475
156	0xc040bed9	-3.0116484
157	0xbedcd96e	-0.43134636
158	0xbfc00e91	-1.5004445
159	0x3fa7a385	1.3096777
160	0xc0368837	-2.852064
161	0x3c147d72	0.009063112
162	0x3e0190b2	0.12652853
163	0xbf1e08db	-0.6173226
164	0xbeb8e366	-0.3611099
165	0xbf8e167e	-1.1100614
166	0x3f6b43ac	0.91900134
167	0xbf87c30e	-1.0606401
168	0xc01394bf	-2.3059537
169	0x3f90ab58	1.130229
170	0x3fbf03b6	1.4923007
171	0xbddf53c5	-0.1090465
172	0xc0015ee9	-2.0214179
173	0x3f1c574c	0.61070704
174	0x3f8b458a	1.0880597
175	0x405a3fbb	3.4101398
176	0x3e86d273	0.26332435
177	0x3da07a5b	0.078358375
178	0xbf8b4578	-1.0880575
179	0xbd194a40	-0.037424326
180	0xbf859b0b	-1.043794
181	0xc03df15c	-2.9678564
182	0xbf91cde2	-1.1390955
183	0xbf9e75a0	-1.2379646
184	0xbf318c92	-0.6935512
185	0xbfd67da0	-1.6757088
186	0xc0063df2	-2.0975308
187	0x3e69d3f8	0.22834766
188	0x3fa247ae	1.2678125
189	0xbf882113	-1.0635093
190	0x3f9900bf	1.1953353
191	0x3f832197	1.0244626
192	0x405835ea	3.3782907
193	0xbfb0d722	-1.3815653
194	0x3f6bff47	0.921864
195	0xbf5c22d3	-0.8599064
196	0xbfbb6025	-1.4638716
197	0xbdd8d645	-0.10587744
198	0x3f3b9f02	0.732895
199	0x3f84580a	1.0339367
200	0x3dbde783	0.09272673
201	0x403bed0a	2.9363427
202	0xbf2e5cca	-0.68110335
203	0xbf5a9112	-0.8537761
204	0x3e02193a	0.12704936
205	0x3fa2d0e8	1.2720003
206	0x3fe5e72b	1.7961172
207	0x3eaa7759	0.3329418
208	0xbf9cc407	-1.2247323
209	0xbf23211f	-0.63722414
210	0xbf45ad36	-0.77217424
211	0xbf898ac0	-1.0745468
212	0xbca607d8	-0.020267412
213	0xbcffdcfa	-0.0312333
214	0xbe2dafac	-0.16961545
215	0xc02670ce	-2.600635
216	0xbd8f9928	-0.07011634
217	0x3f953951	1.1658117
218	0xbff16294	-1.8858209
219	0x4005a7ac	2.0883589
220	0x3ef59f40	0.4797306
221	0xbec15db6	-0.37766808
222	0x3fc1404c	1.5097747
223	0x403de8e9	2.9673407
224	0xbf3d896e	-0.74037826
225	0x401949fb	2.3951404
226	0xbe37c950	-0.17947888
227	0xbfdde29a	-1.7334778
228	0xbf16b7c0	-0.5887413
229	0xbe31211e	-0.1729779
230	0x3f87fd45	1.0624167
231	0x40326e3e	2.7879786
232	0xbcd95bcd	-0.026533032
233	0xbf5b64df	-0.8570079
234	0xc043f864	-3.0620356
235	0xbf99610f	-1.1982745
236	0xbf377112	-0.71656907
237	0x3e6d74da	0.23189107
238	0x3f3079f9	0.68936116
239	0x3f35d1b1	0.7102309
240	0xbfaf48cd	-1.3694092
241	0xbda2ef13	-0.07955756
242	0xbf29a5e3	-0.6626875
243	0xbd2bcaf2	-0.04194159
244	0xbf6f323b	-0.9343602
245	0xbecc76e4	-0.39934456
246	0xbf1676e7	-0.5877518
247	0x3f53df69	0.8276277
248	0x3ffb63fa	1.9639885
249	0xbfdd4b1e	-1.7288549
250	0x3f4cb555	0.7996419
251	0x3e5877cf	0.21139453
252	0x3f7b3ca7	0.98139423
253	0x3f7e9ef4	0.99461293
254	0x3f6925e6	0.91073453
255	0x3d4787f8	0.048713654

cls_token f4 [1, 1, 64]
0	0xbfb24da5	-1.3929945
1	0xbe6c828f	-0.23096679
2	0x3f90201c	1.1259799
3	0xbe1ba884	-0.15201002
4	0x3f38594f	0.72011274
5	0xbf9fafdf	-1.2475547
6	0xbfd225a5	-1.6417738
7	0xbeb3a7f0	-0.35089064
8	0xbea8b36e	-0.32949394
9	0xbfc85942	-1.5652239
10	0x3de0afee	0.10971056
11	0x4002c2a9	2.043131
12	0xbfa634aa	-1.2984822
13	0x3e2b8f6f	0.16753934
14	0xbe0c64bf	-0.13710307
15	0xbe3027ac	-0.17202634
16	0xbecb1c71	-0.39670137
17	0x3d56145f	0.05226552
18	0x3f96acc3	1.1771473
19	0xbf418b47	-0.75603145
20	0xbf382496	-0.71930826
21	0x3f8255c7	1.0182427
22	0xbe634d61	-0.22197486
23	0x3f7bd4e9	0.9837175
24	0x3f5a0175	0.85158473
25	0xc006728b	-2.1007411
26	0x3f28b63e	0.6590308
27	0x3f34ec89	0.70673424
28	0x3fe8c0ab	1.8183798
29	0x3d417f39	0.04724047
30	0xbf895a94	-1.0730767
31	0x3f94fe0a	1.1640027
32	0xbfa5847e	-1.2931058
33	0x3f922abc	1.1419291
34	0xbfda1250	-1.7036839
35	0x40088749	2.1332572
36	0xbf1a6e61	-0.60324675
37	0x4036dec7	2.8573472
38	0xbef8f01c	-0.4862069
39	0x3c0571cd	0.008144808
40	0xbfc73e55	-1.5565897
41	0xbe57d23d	-0.21076293
42	0xc02b629e	-2.677894
43	0xbd7a9237	-0.061174598
44	0x3ecefa09	0.40425137
45	0xbeb3531b	-0.35024342
46	0x3f4f4636	0.8096651
47	0x3f9b1161	1.2114679
48	0x3b80f228	0.0039351173
49	0x3d41f141	0.04734922
50	0x3f219f86	0.6313404
51	0x3e35f16a	0.17767873
52	0x3f54edba	0.8317524
53	0x4030497c	2.7544851
54	0xbe46964a	-0.19393268
55	0xbfa7cd6d	-1.3109566
56	0xbf85bce7	-1.0448273
57	0xbf8c7529	-1.0973254
58	0x3f16d430	0.5891752
59	0xbfe52f6b	-1.7905096
60	0x3fe771b3	1.8081573
61	0xbfda77e7	-1.7067841
62	0x3fdb8381	1.7149507
63	0xbef8f84c	-0.48626935

patch_to_embedding.weight f4 [64, 49]
0	0xbe9203a1	-0.28518394
1	0xbee546fa	-0.44780713
2	0xbd70c27d	-0.05877923
3	0xbd8ce7b7	-0.068801336
4	0xbe923803	-0.2855836
5	0x3f0aba85	0.54190856
6	0x3eaa5d0c	0.33274114
7	0xbd06ffef	-0.03295892
8	0x3d9cd96f	0.0765866
9	0x3ebb9ff7	0.3664548
10	0x3e433c7a	0.19066039
11	0x3ebc5f96	0.36791676
12	0x3e72982d	0.23690863
13	0x3c8d676a	0.017261226
14	0xbebc9225	-0.3683025
15	0x3ef8827b	0.4853705
16	0x3eafdb12	0.34346825
17	0x3f1d83fd	0.61529523
18	0x3e34ff44	0.17675501
19	0x3dcb0ee2	0.09914948
20	0xbdfba384	-0.122870475
21	0xbe405fc4	-0.18786532
22	0x3eb3b8ee	0.35102028
23	0x3e429a02	0.19004062
24	0xbc5f75f8	-0.013638966
25	0xbe057163	-0.13031535
26	0xbe338f79	-0.17535199
27	0xbe000fb9	-0.12505998
28	0xbddf04fb	-0.10889622
29	0x3ece3e87	0.4028208
30	0xbd9388ef	-0.072038524
31	0x3cc7f662	0.024409477
32	0xbe8a91e9	-0.27064446
33	0xbea122ee	-0.31471962
34	0xbe230b40	-0.1592226
35	0xbe68aecd	-0.22722931
36	0x3e03b37b	0.12861435
37	0xbe21e259	-0.15809001
38	0x3d3d754d	0.046254445
39	0x3ec39a2b	0.38203558
40	0x3e37a70f	0.17934822
41	0xbd7f87f5	-0.062385518
42	0xbef14a34	-0.47126925
43	0xbe8d5599	-0.27604368
44	0xbe4b2d00	-0.19841385
45	0xbe994ad5	-0.29939905
46	0x3e16c3d6	0.14723143
47	0x3dcbdc85	0.0995417
48	0x3e22d5e9	0.15901913
49	0x3f01ae85	0.5065692
50	0xbd48cb13	-0.04902179
51	0xbd0e2460	-0.03470266
52	0x3d8dcec6	0.069242045
53	0xbeed3d07	-0.46335623
54	0xbee5dfab	-0.44897208
55	0xbf084565	-0.5323089
56	0x3e07edfc	0.13274378
57	0xbe55857c	-0.20851701
58	0xbf29f6f9	-0.66392475
59	0xbe5b630f	-0.21424507
60	0xbe86a476	-0.2629735
61	0x3d5cab6e	0.053874426
62	0x3e9f91b6	0.31165856
63	0x3cf6bcb0	0.03011927
64	0x3d1eb7f1	0.03874964
65	0xbec00309	-0.37502316
66	0xbea34f17	-0.31896278
67	0x3d47ba90	0.048761904
68	0x3e824f16	0.25450963
69	0x3e325482	0.1741505
70	0x3dfc3c18	0.123161495
71	0x3dfba21c	0.12286779
72	0x3df4f605	0.11960987
73	0x3eacf6c9	0.33782032
74	0x3e962c8f	0.2933087
75	0xbdbd1b7f	-0.0923376
76	0xbecc62d2	-0.39919144
77	0x3e29fd4c	0.16600531
78	0x3dbfa867	0.09358292
79	0x3e8186f4	0.25298274
80	0x3e7c042f	0.24610971
81	0x3d34c2ce	0.044131093
82	0xbc5bdfc4	-0.013420049
83	0xbca10ecc	-0.019660376
84	0x3ce13d01	0.02749491
85	0x3c6c2472	0.014412986
86	0x3e44e9f9	0.19229878
87	0x3e845891	0.2584882
88	0x3db2adaf	0.08724534
89	0x3e3d931c	0.18513149
90	0x3eaaf79b	0.33392033
91	0xbeb4f433	-0.3534256
92	0xbe42fb5b	-0.19041197
93	0xbee2484e	-0.4419579
94	0xbf3f3903	-0.7469637
95	0xbeb0eadb	-0.3455418
96	0xbc83904d	-0.016060019
97	0x3e1f12ec	0.15534562
98	0xbebc7690	-0.36809206
99	0xbdd39371	-0.103308566
100	0x3e32eb9e	0.17472693
101	0x3eec8355	0.46193948
102	0x3e8d846b	0.2764009
103	0x3de0b241	0.10971499
104	0x3da0ad8e	0.07845603
105	0xbeafd6f1	-0.34343675
106	0xbeb6f0da	-0.3573063
107	0xbe87832c	-0.26467264
108	0xbebdd1e5	-0.370742
109	0xbe89a352	-0.26882416
110	0xbd4b2af4	-0.04960151
111	0x3cda56f2	0.026652787
112	0xbf1c4eb7	-0.6105761
113	0xbe819e46	-0.25316066
114	0xbce87fb5	-0.028381208
115	0x3dd1d4c3	0.10245659
116	0xbe16666e	-0.14687511
117	0xbde1875c	-0.11012146
118	0x3d070ac1	0.03296924
119	0xbe4b5804	-0.19857794
120	0x3e21d15a	0.15802518
121	0x3eb4c8c9	0.35309437
122	0x3ec5525f	0.38539407
123	0xbdf62743	-0.12019207
124	0x3df8dfe4	0.12152079
125	0x396e8ca8	0.00022749847
126	0x3e115943	0.14194207
127	0x3f0c750b	0.54866093
128	0x3f050a73	0.5196907
129	0x3e4a8988	0.19779027
130	0x3eb7e412	0.3591619
131	0x3e90218e	0.281506
132	0xbdfae096	-0.122498676
133	0x3e69baaf	0.2282512
134	0x3ec1a624	0.37822068
135	0x3e1f6051	0.15564086
136	0x3e029037	0.12750326
137	0xbd4e1ed3	-0.050322365
138	0x3cc4b682	0.024012808
139	0x3e547782	0.20748714
140	0xbe1c0a23	-0.15238242
141	0xbe90840e	-0.2822575
142	0xbe824ab7	-0.25447628
143	0xbe2da6f0	-0.16958213
144	0x3dc8a591	0.09797204
145	0x3c3ffd45	0.011718099
146	0x3e7a53ca	0.24446025
147	0xbf13a4d3	-0.57673377
148	0xbdaf24bf	-0.08551931
149	0xbc7d5fd2	-0.01546474
150	0xbdd69b81	-0.10478879
151	0x3e507d46	0.20360288
152	0x3e644620	0.22292376
153	0x3ecf6656	0.40507764
154	0xbdd81ab5	-0.10551969
155	0x3e1cb0b8	0.15301788
156	0x3eb6b97d	0.3568839
157	0xbe339976	-0.1753901
158	0xbea4f611	-0.32218984
159	0x3d5aff62	0.05346621
160	0xbe93757b	-0.28800568
161	0x3e4760aa	0.19470468
162	0x3e0f97c0	0.14022732
163	0xbea8ebb8	-0.3299234
164	0xbdf975fd	-0.121807076
165	0xbd4e4a03	-0.05036355
166	0xbc717479	-0.014737242
167	0xbddd1451	-0.10794891
168	0xbea1255b	-0.31473812
169	0xbe2dc01a	-0.16967812
170	0xbdc4dea3	-0.09612777
171	0xbd576faa	-0.052596726
172	0xbdef42dd	-0.11682675
173	0x3e1a5489	0.1507131
174	0xbf05bf68	-0.5224519
175	0xbf3e2a67	-0.7428345
176	0x3cff10b7	0.0311359
177	0x3e618a57	0.22025429
178	0xbd6a811e	-0.057252042
179	0x3e2de66e	0.16982433
180	0x3c66fc12	0.014098184
181	0xbeb686a0	-0.35649586
182	0xbe857935	-0.26069036
183	0x3e88b9b0	0.26704168
184	0x3e29ba6a	0.16575018
185	0xbcaa6819	-0.02080159
186	0xbeb187c0	-0.34673882
187	0x3eb06549	0.34452274
188	0x3ec64042	0.387209
189	0x3ca11827	0.019664837
190	0x3e8385a6	0.25687903
191	0xbda1827e	-0.078862175
192	0xbe291683	-0.16512494
193	0xbe88c6b6	-0.26714104
194	0x3de6536c	0.1124638
195	0xbe10b807	-0.14132701
196	0x3d929cb1	0.07158793
197	0x3ec04c1f	0.37558076
198	0x3e0b1089	0.13580526
199	0xbcac04a0	-0.0209983
200	0x3e39ea98	0.18155897
201	0x3e8d224f	0.27565238
202	0x3e7b2a7e	0.24527928
203	0x3ede7db2	0.43455273
204	0x3ee313a3	0.4435092
205	0x3e39010a	0.18066803
206	0x3e745fc2	0.23864654
207	0x3e50edc1	0.20403196
208	0xbddb391b	-0.107042514
209	0xbdc484e9	-0.09595663
210	0x3ea0083b	0.3125628
211	0x3e8d8005	0.27636734
212	0xbe0d90c8	-0.13824761
213	0xbda1565a	-0.078777984
214	0xbe1eaac3	-0.15494828
215	0x3c1f9f14	0.009742517
216	0xbea658b4	-0.3248955
217	0x3eee22ed	0.4651102
218	0x3eaa4562	0.3325606
219	0xbd9847b1	-0.07435549
220	0xbeb8bae8	-0.36080098
221	0xbe9bd8a7	-0.3043873
222	0xbe86ca40	-0.2632618
223	0xbe979c0f	-0.2961125
224	0x3e367c4f	0.17820857
225	0x3ddd33cf	0.10800897
226	0x3db9e7cb	0.09077414
227	0xbdecd1fd	-0.115634896
228	0xbe088df9	-0.13335408
229	0xbe58be7a	-0.21166411
230	0xbee926ba	-0.4553736
231	0x3db94a36	0.09047358
232	0x3dbef240	0.09323549
233	0x3d1df1d9	0.038560722
234	0x3d3db564	0.046315566
235	0xbe1a233b	-0.15052502
236	0xbea6570f	-0.32488295
237	0xbebabd22	-0.36472422
238	0x3e26db5e	0.1629462
239	0x3e9e4659	0.30913046
240	0xbacb9973	-0.0015533402
241	0x3d7b029b	0.06128178
242	0xbdd1fa02	-0.10252763
243	0x3ddd9cd0	0.10820925
244	0x3e6eaf7f	0.23309134
245	0xbc91eecc	-0.017814063
246	0x3a67238b	0.0008817247
247	0x3e884226	0.26612967
248	0x3f15ea09	0.58560234
249	0x3ee1ef98	0.44128108
250	0x3edbaf37	0.42907116
251	0xbdc77fa1	-0.0974114
252	0xbe87cd81	-0.26523975
253	0xbe67780a	-0.22604385
254	0x3b59c414	0.0033228444
255	0x3df928e7	0.12166005

patch_to_embedding.bias f4 [64]
0	0xbdadda61	-0.08488918
1	0xbe25fc40	-0.16209507
2	0x3e57ba97	0.21067272
3	0x3e6f5c8f	0.23375152
4	0x3ce0665e	0.027392562
5	0x3cdf1a73	0.027234292
6	0x3df1e3b0	0.11811006
7	0xbe34a326	-0.17640361
8	0xbe1eeaf9	-0.15519322
9	0xbdbd058a	-0.09229572
10	0x3d96d4a1	0.073647745
11	0x3c851dd9	0.016249584
12	0xbe80a738	-0.25127578
13	0xbdb013f1	-0.085975535
14	0xbe2971e5	-0.16547354
15	0xbe4838c6	-0.19552907
16	0x3ee8b7e8	0.4545281
17	0xbe55a649	-0.20864214
18	0x3e03c97a	0.12869826
19	0x3dccd67e	0.10001849
20	0x3e3be815	0.18350251
21	0xbef2cb73	-0.47420844
22	0x3e9d178e	0.30682033
23	0xbf088986	-0.53334844
24	0x3e0f8448	0.14015305
25	0xbc937c59	-0.01800363
26	0x3e6e32e1	0.23261596
27	0x3e235a6a	0.15952459
28	0xbdb8c264	-0.09021452
29	0xbd6c9e0c	-0.057767913
30	0x3e0fc10a	0.14038482
31	0xbd38cf1d	-0.045119394
32	0x3db9e229	0.0907634
33	0x3ea00f54	0.31261694
34	0xbe688716	-0.22707781
35	0x3de38294	0.1110889
36	0xbe655d68	-0.22398913
37	0xbea58410	-0.32327318
38	0xbdc3c606	-0.09559254
39	0x3c0a5c97	0.008444927
40	0xbcac83ae	-0.021058884
41	0x3bd0da45	0.006373676
42	0x3e02ec71	0.12785508
43	0xbb6284fb	-0.0034564126
44	0xbe216c6a	-0.15764013
45	0xbd968800	-0.07350159
46	0x3df27d64	0.118403226
47	0x3e909717	0.28240272
48	0xbdb9f39f	-0.0907967
49	0xbe1ca99d	-0.15299077
50	0xbdaebe99	-0.08532447
51	0xbdfbb893	-0.12291064
52	0x3e8d7960	0.27631664
53	0xbd383c4e	-0.044979386
54	0x3e9213a7	0.2853062
55	0x3edf3ae6	0.43599623
56	0x3c809c15	0.015699426
57	0xbe5e1110	-0.21686196
58	0x3dc1e121	0.09466768
59	0xbdb8eaae	-0.090291366
60	0x3ba1f2a1	0.0049422537
61	0x3d71f70e	0.0590735
62	0x3d075b21	0.03304589
63	0x3e76644a	0.24061695

transformer.layers.0.0.fn.norm.weight f4 [64]
0	0x3ec1f178	0.3787954
1	0x3edbee0c	0.42955053
2	0x3f12652f	0.57185644
3	0x3e84bd4f	0.2592568
4	0x3f2c32ec	0.672652
5	0x3ec16070	0.37768888
6	0x3e511bb8	0.2042073
7	0x3ee2557e	0.4420585
8	0x3e9e6555	0.30936685
9	0x3f4ad4de	0.7923106
10	0x3e85f413	0.26162776
11	0x3e2ff0b7	0.17181669
12	0x3ef3ab86	0.475918
13	0x3eac5d0e	0.33664745
14	0x3ea5adda	0.323592
15	0x3e154499	0.14576949
16	0x3e29281f	0.16519211
17	0x3edee87e	0.43536752
18	0x3e35d463	0.177568
19	0x3f2909f0	0.6603079
20	0x3e81eef8	0.2537763
21	0x3e14c59c	0.14528507
22	0x3ee61d71	0.44944337
23	0x3da26d09	0.07930953
24	0x3f2668a5	0.65003425
25	0x3e5b3b28	0.21409285
26	0x3e9466b9	0.2898462
27	0x3eb2af36	0.348993
28	0x3ebb095e	0.36530584
29	0x3f12e509	0.5738073
30	0x3f061184	0.52370477
31	0x3f0845ad	0.53231317
32	0x3e8bd966	0.273143
33	0x3efdfef2	0.4960857
34	0x3e23fc21	0.16014148
35	0x3ef6b934	0.48188174
36	0x3eda247e	0.42605966
37	0x3e5dd2b7	0.21662413
38	0x3f13d2dd	0.57743627
39	0x3f058d16	0.52168405
40	0x3ef75908	0.48310113
41	0x3e8c441e	0.2739572
42	0x3f14dec2	0.581524
43	0x3ec0f9a1	0.37690452
44	0x3eeebc9e	0.46628278
45	0x3eaaea1e	0.33381742
46	0x3e8bb0e0	0.27283382
47	0x3e8e86dd	0.27837268
48	0x3eaca13c	0.33716762
49	0x3f03b886	0.51453435
50	0x3ed3d651	0.41374448
51	0x3f0a2503	0.53962725
52	0x3ea4711c	0.32117546
53	0x3e564eaa	0.20928445
54	0x3f03d574	0.5149758
55	0x3e792152	0.24329117
56	0x3eb91b83	0.36153802
57	0x3eb0dfa7	0.34545633
58	0x3f0aa9f7	0.54165596
59	0x3ef90f63	0.48644552
60	0x3dfacbcc	0.122459024
61	0x3ebfbbd1	0.3744798
62	0x3e379b02	0.17930225
63	0x3e1511ab	0.14557521

transformer.layers.0.0.fn.norm.bias f4 [64]
0	0x3d616fd4	0.05503829
1	0x3de0ceaa	0.10976918
2	0x3d393972	0.0452208
3	0x3ca3bb0a	0.019986648
4	0x3de826fb	0.1133556
5	0x3da95e99	0.08269996
6	0xbca4aae9	-0.020101028
7	0xbbe9cad3	-0.0071347742
8	0x3dcb87ba	0.09937997
9	0x3d1d61f9	0.038423512
10	0x3d790c1d	0.060802568
11	0xbd2d19c8	-0.042260915
12	0x3db29010	0.08718884
13	0x3bb2c95c	0.005456133
14	0x3cea6b48	0.028615609
15	0xb7b35200	-2.1376647e-05
16	0xbd517d60	-0.051144958
17	0x3d9cf486	0.07663827
18	0xbd8687f0	-0.06568897
19	0xbc93941c	-0.01801496
20	0xbd8237e3	-0.06358316
21	0x3db239a1	0.08702398
22	0xbd879867	-0.06620865
23	0x3c80ebf3	0.01573751
24	0xbc4db2e5	-0.012554859
25	0xbbb432e3	-0.00549923
26	0xbdc59c98	-0.096490085
27	0xbd854491	-0.06507219
28	0xbdb9c3cd	-0.09070549
29	0xbd0509eb	-0.03248016
30	0xbd894d50	-0.06704199
31	0x3dc846a9	0.09779102
32	0xbd1d5c88	-0.038418323
33	0x3ce77407	0.028253568
34	0xbc07c64d	-0.008287025
35	0x3d43d129	0.047806893
36	0x3d09e7c3	0.03366829
37	0x3d235b84	0.039882198
38	0x3d8ab000	0.067718506
39	0xbd51b920	-0.05120194
40	0x3d1f6959	0.038918827
41	0x3d05c6e8	0.032660395
42	0x3d26ea42	0.04075075
43	0x3d814c0e	0.063133344
44	0x3c96ec82	0.018423323
45	0xbcd3ca0b	-0.025853178
46	0x3c5fa5bd	0.013650355
47	0xbe25a37d	-0.16175647
48	0x3d5d3182	0.054002292
49	0xbd5df7ed	-0.05419152
50	0x3d0461be	0.032319777
51	0xbdbb330f	-0.09140598
52	0xbbeefa82	-0.0072930465
53	0x3d2430f9	0.040085766
54	0x3c0979cc	0.008390855
55	0xbe172040	-0.14758396
56	0x3ced83a2	0.028993431
57	0x3c24df44	0.010062996
58	0xbdc61afe	-0.09673117
59	0x3d2f8e89	0.04286054
60	0xba61459a	-0.000859344
61	0xbd772c30	-0.060344875
62	0xbd2d3121	-0.04228318
63	0xbd0939b1	-0.033502284

transformer.layers.0.0.fn.fn.to_qkv.weight f4 [192, 64]
0	0xbe05d3c9	-0.13069071
1	0x3e024087	0.12719928
2	0xbd55b730	-0.052176654
3	0xbdac348a	-0.084084585
4	0x3f1811e3	0.5940229
5	0xbf370a2c	-0.71499896
6	0xbf36d5d2	-0.71420014
7	0xbef0de20	-0.47044468
8	0x3d2df8da	0.04247365
9	0xbf1e38e6	-0.6180557
10	0x3eb34927	0.35016748
11	0x3e86ea03	0.26350412
12	0xbd3c2c84	-0.04594089
13	0xbee17c7a	-0.4404028
14	0xbd1c6aa1	-0.038187627
15	0x3ec967ad	0.3933691
16	0x3cd6fb72	0.026242945
17	0xbd16c9e5	-0.036813635
18	0xbe73651a	-0.23769036
19	0xbee43a2f	-0.4457564
20	0xbcabf724	-0.02099187
21	0x3e5ff7da	0.21871892
22	0x3e365202	0.17804721
23	0x3ef73615	0.4828345
24	0x3f480c34	0.7814362
25	0xbf0d5014	-0.55200315
26	0x3d8b130c	0.06790742
27	0xbe24a994	-0.16080314
28	0xbe0878bf	-0.13327311
29	0x3e41438d	0.18873425
30	0xbeb6a839	-0.3567522
31	0xbca91d55	-0.02064387
32	0x3db902c9	0.09033734
33	0x3adf70c0	0.0017047152
34	0x3dae1c70	0.08501518
35	0x3e91c815	0.28472963
36	0xbdf2f092	-0.118622914
37	0x3e8cd82c	0.27508676
38	0xbeb2caed	-0.34920445
39	0xbf390210	-0.7226877
40	0xbda44a5b	-0.08021995
41	0x3dfae110	0.122499585
42	0x3e0b5040	0.13604832
43	0x3d417c21	0.04723752
44	0x3e8b6daf	0.2723212
45	0xbd31d9dc	-0.043420658
46	0xbede2980	-0.43391037
47	0xbdba57d6	-0.090987846
48	0xbe31ca20	-0.17362261
49	0x3c88b9e5	0.016690204
50	0x3e8699f1	0.26289323
51	0xbe991aa3	-0.29903135
52	0x3db131bf	0.086520664
53	0x3eae5f50	0.34057093
54	0x3e9e725b	0.3094662
55	0x3ee670bc	0.45007885
56	0xbdb760ff	-0.089540474
57	0x3d9383ee	0.07202898
58	0xbead9770	-0.339046
59	0xbf1adee0	-0.6049633
60	0x3e5e2a7c	0.21695894
61	0x3e982917	0.2971885
62	0x3ea03916	0.31293553
63	0xbe83044f	-0.25589225
64	0x3ef6ebd9	0.48226812
65	0xbebff7c8	-0.3749373
66	0xbf007bbf	-0.5018882
67	0x3e5c1ee1	0.21496154
68	0x3ed7a114	0.4211508
69	0xbf1e4304	-0.6182101
70	0xbe5002c5	-0.20313556
71	0x3dbee337	0.093206815
72	0xbe569af3	-0.20957546
73	0xbf651e74	-0.8949959
74	0xbcf4227c	-0.0298016
75	0xbd542264	-0.05179061
76	0x3dd9d285	0.106358565
77	0xbeed7b04	-0.46382916
78	0xbc56ce00	-0.013110638
79	0x3f584a26	0.8448814
80	0x3dc921f7	0.098209314
81	0xbec6d020	-0.38830662
82	0xbf977de8	-1.1835299
83	0xbd7de87c	-0.061989293
84	0x3f525c01	0.82171637
85	0x3da5580a	0.08073433
86	0xbeaaa565	-0.3332931
87	0xbaeda1d4	-0.0018129894
88	0x3e59d217	0.21271549
89	0xbf61a7a3	-0.8814642
90	0x3e5b9387	0.21442996
91	0x3f2d28c5	0.67640334
92	0x3f0cac96	0.54950845
93	0x3e7ec834	0.24881059
94	0xbd8b7639	-0.068096586
95	0x3f3fff3f	0.7499885
96	0x3cdd5ed5	0.027022758
97	0x3e8076f1	0.25090745
98	0xbf197549	-0.5994459
99	0x3e79c345	0.24390896
100	0xbefd2eb3	-0.4944969
101	0xbf095eee	-0.53660476
102	0xbea9889f	-0.33112046
103	0xbef187a6	-0.47173804
104	0xbe0775d5	-0.13228543
105	0xbe730ac4	-0.23734576
106	0xbdafa93e	-0.08577202
107	0x3e19c6f5	0.15017302
108	0x3f1654e5	0.5872329
109	0xbdf1a5fc	-0.11799237
110	0xbe830dc4	-0.2559644
111	0x3dddc412	0.10828413
112	0xbf1f08d4	-0.62122846
113	0x3eea2c50	0.45736933
114	0x3d845573	0.06461611
115	0x3e78d408	0.24299634
116	0x3f17a3f0	0.59234524
117	0x3dc40653	0.09571519
118	0x3e655e44	0.2239924
119	0xb9fe5d38	-0.0004851611
120	0x3e46bb25	0.19407327
121	0xbefb4019	-0.4907234
122	0x3dc1df65	0.09466437
123	0xbf2a50c3	-0.6652948
124	0xbd08a652	-0.03336174
125	0xbe097449	-0.13423266
126	0x3ea88df1	0.32920793
127	0xbeadf4ab	-0.3397573
128	0x3ed6f735	0.4198548
129	0x3eb935fc	0.36174
130	0x3e7bbda6	0.24584064
131	0xbeb5ac6e	-0.35483116
132	0xbe731dd7	-0.23741852
133	0x3dd47912	0.10374655
134	0x3de9dde9	0.11419279
135	0x3d60de1d	0.054899324
136	0x3e004cb8	0.12529266
137	0x3ec31c34	0.38107455
138	0xbeaef4c1	-0.34171107
139	0xbe579cc3	-0.21055894
140	0xbdd91d2b	-0.106012665
141	0x3d428e70	0.04749912
142	0x3ebd3149	0.36951664
143	0x3e8b528b	0.27211413
144	0x3d76cc94	0.060253695
145	0xbeded3d9	-0.43521002
146	0xbe0e4ba8	-0.13896048
147	0x3e4bf7a5	0.19918688
148	0xbf0840d8	-0.53223944
149	0x3eac3e3d	0.33641234
150	0xbdcb6c17	-0.09932726
151	0x3e1efab0	0.15525317
152	0x3eac56c4	0.33659947
153	0x3ec6cf60	0.3883009
154	0xbe785d1b	-0.24254267
155	0x3f64a7e4	0.8931868
156	0xbe5ba947	-0.21451293
157	0xbe74a385	-0.23890503
158	0xbf1387bb	-0.57628983
159	0x3f097873	0.53699416
160	0x3e6511b8	0.2237004
161	0xbdfed106	-0.12442212
162	0xbebd43af	-0.369657
163	0x3e8e3a6c	0.27778947
164	0xbea57165	-0.32313076
165	0x3ed78cf3	0.42099723
166	0xbe10e644	-0.1415034
167	0xbe361535	-0.17781527
168	0xbf06696b	-0.52504605
169	0xbeb672d0	-0.3563447
170	0xbf29248c	-0.6607139
171	0xbf183f6c	-0.59471774
172	0x3e8836cb	0.26604304
173	0x3e5c29a7	0.21500264
174	0xbdeb8749	-0.11500413
175	0xbd89b939	-0.067247815
176	0xbe5659f4	-0.20932752
177	0x3d16b3ca	0.036792554
178	0x3ee2ed7b	0.44321808
179	0x3db428f4	0.08796874
180	0xbee2ef06	-0.44322985
181	0x3f445f15	0.76707584
182	0xbeb6cd49	-0.35703495
183	0xbdbb597b	-0.091479264
184	0xbdc49d0d	-0.096002676
185	0xbe966e30	-0.2938094
186	0xbef2de5f	-0.4743528
187	0xbf0fdf04	-0.5619967
188	0x3cd951bd	0.026528234
189	0x3d1b6a33	0.037943076
190	0x3e3fcb5f	0.18729924
191	0xbe53aa47	-0.20670424
192	0xbe84c08e	-0.25928158
193	0xbbdc3788	-0.006720487
194	0x3ea98a04	0.3311311
195	0xbee6ed63	-0.45102987
196	0x3eae4e33	0.34044036
197	0xbf044439	-0.516666
198	0xbf13f329	-0.5779291
199	0xbe0eeb37	-0.13956915
200	0x3dbee4fc	0.09321019
201	0xbf21953c	-0.6311834
202	0x3e0cf3b6	0.13764843
203	0x3ec42095	0.38306108
204	0x3c00cd22	0.0078614075
205	0xbec46153	-0.38355502
206	0xbe9c50e6	-0.3053047
207	0x3e11d2f6	0.14240631
208	0xbd7a2533	-0.061070632
209	0x3d8ad03b	0.06777998
210	0xbf3bf9ad	-0.7342785
211	0xbea73f44	-0.32665455
212	0x3eafbdf8	0.34324622
213	0x3ec60cd1	0.38681653
214	0x3e0e51e7	0.13898431
215	0x3d94808a	0.072510794
216	0x3f4a0b9d	0.7892397
217	0xbf7a96a4	-0.9788611
218	0x3e1db5a7	0.15401326
219	0x3eb3b9be	0.35102648
220	0x3e90ff9a	0.2832001
221	0x3f45d578	0.7727885
222	0x3bf78858	0.0075540952
223	0x3e2d9f15	0.16955216
224	0xbe344330	-0.17603755
225	0x3db0f6f3	0.08640852
226	0xbe3ef1c2	-0.18646911
227	0x3e3c3f1e	0.18383452
228	0x3c419990	0.011816397
229	0x3e68c283	0.2273045
230	0xbd1785cc	-0.036992833
231	0xbecbdab6	-0.398153
232	0xbd519fde	-0.05117785
233	0x3cc2e5ef	0.023791282
234	0xbeb0bcf9	-0.34519175
235	0x3d5f7fae	0.054565124
236	0xbd05c2a3	-0.032656323
237	0xbe004cf8	-0.12529361
238	0xbe0ac440	-0.13551426
239	0xbe552f9b	-0.20818941
240	0xbf1e7376	-0.6189493
241	0xbd70e28d	-0.058809806
242	0x3d811e28	0.0630458
243	0x3e8113f9	0.2521055
244	0x3eafd206	0.34339923
245	0x3e4599b2	0.19296911
246	0xbd75bfe9	-0.059997473
247	0x3e6ed858	0.23324716
248	0x3e8b6e9c	0.27232826
249	0xbf1d0f88	-0.61351824
250	0x3eb4da1c	0.35322654
251	0xbd8f26aa	-0.069897965
252	0x3d7d0773	0.061774682
253	0x3e5f4ebb	0.21807377
254	0xbd602c16	-0.054729544
255	0xbdbc9795	-0.092085995

transformer.layers.0.0.fn.fn.to_out.weight f4 [64, 64]
0	0x3e624129	0.22095169
1	0xbe45ec36	-0.19328389
2	0xbe077ae8	-0.13230479
3	0x3dc6a21e	0.0969889
4	0x3d8331b1	0.06405962
5	0x3ce96536	0.028490644
6	0xbe0df5d9	-0.13863315
7	0xbe8b7dd8	-0.2724445
8	0x3e5e5438	0.21711814
9	0x3f0c4316	0.54789865
10	0x3e682b59	0.22672786
11	0xbe1416f6	-0.14461884
12	0x3d53c1e1	0.05169857
13	0x3d22b776	0.039725743
14	0xbf1606c5	-0.5860408
15	0xbeddfe37	-0.43358013
16	0xbe614a51	-0.22001006
17	0x3d983207	0.07431417
18	0x3da261a6	0.07928781
19	0xbdd37d8e	-0.10326682
20	0xbdd1d9d9	-0.10246629
21	0xbe90c7d8	-0.2827747
22	0xbe53ed65	-0.20696028
23	0x3d8415f9	0.064495035
24	0xbd8c1359	-0.06839628
25	0xbda5bfc3	-0.08093216
26	0xbcc78368	-0.024354652
27	0x3e01bdfb	0.12670128
28	0xbebdbe30	-0.37059164
29	0x3de7e794	0.11323467
30	0xbd8c1371	-0.06839646
31	0x3d3b9ae8	0.045802027
32	0x3ec9da84	0.39424527
33	0x3dc3cff7	0.095611505
34	0xbd5d7c58	-0.05407366
35	0xbccb0dd6	-0.02478687
36	0x3ad79396	0.0016447182
37	0xbded2cc0	-0.11580801
38	0x3f0d81b4	0.55276036
39	0xbe426da2	-0.18987134
40	0xbd3b3dac	-0.04571311
41	0xbe2b57c4	-0.16732699
42	0x3dc17765	0.09446601
43	0xba6ad4e4	-0.0008958115
44	0xbe9a6641	-0.3015614
45	0x3e35ab63	0.1774116
46	0x3da5000e	0.08056651
47	0xbe07b736	-0.13253483
48	0x3dd82b01	0.10555077
49	0x3e19617b	0.14978592
50	0x3ea29728	0.31755948
51	0xbe2f6c54	-0.17131168
52	0x3f168e88	0.58811235
53	0xbeae76b9	-0.34074953
54	0x3dd15334	0.10220948
55	0xbd4794de	-0.048725955
56	0x3e4d9fb7	0.20080458
57	0xbe2b74d8	-0.16743791
58	0x3ef98017	0.48730537
59	0x3db504d5	0.08838812
60	0x3f093a9e	0.5360507
61	0xbcc5ffc0	-0.024169803
62	0x3e50c71c	0.20388454
63	0xbe498bb2	-0.19682196
64	0xbc0a596d	-0.008444172
65	0x3d800193	0.062503
66	0x3e73bd06	0.23802575
67	0xbe762fd2	-0.2404168
68	0x3e951299	0.2911575
69	0x3d685036	0.05671712
70	0x3dc20bdf	0.094749205
71	0xbe8927d2	-0.26788193
72	0xbec48c8c	-0.3838848
73	0x3e0b42ab	0.1359965
74	0x3e3c3ff9	0.18383779
75	0x3dce4e89	0.10073573
76	0xbeed14d0	-0.4630494
77	0x3db5eaed	0.08882699
78	0x3e66ef98	0.22552335
79	0x3e90ac42	0.28256422
80	0xbf372893	-0.71546286
81	0xbd2ec3e3	-0.04266728
82	0x3e421722	0.18954137
83	0xbe466b21	-0.19376804
84	0xbdd86a07	-0.10567098
85	0xbc4e0cb9	-0.0125762755
86	0x3cf13ffe	0.02944946
87	0xbda5902b	-0.080841385
88	0xbe13b793	-0.14425497
89	0xbdbca9d1	-0.092120774
90	0x3e98372c	0.29729593
91	0x3ebfa9ea	0.37434322
92	0x3e4c2894	0.19937354
93	0x3f232806	0.63732946
94	0xbec18e17	-0.37803718
95	0x3d22aa34	0.0397131
96	0xbdb578ef	-0.08860957
97	0x3e4065a5	0.18788774
98	0xbe7de821	-0.24795581
99	0x3e6169f6	0.22013077
100	0x3e0519df	0.1299815
101	0x3e7e16c6	0.24813375
102	0x3eab99b6	0.3351571
103	0x3e63ed52	0.222585
104	0xbdc6561f	-0.09684395
105	0x3dd09357	0.10184353
106	0x3d6e0ae7	0.058115866
107	0x3f036676	0.5132822
108	0x3cc9b0aa	0.024620373
109	0xbea32b49	-0.3186896
110	0xbe05760d	-0.13033314
111	0xbec350b2	-0.38147503
112	0x3ee82576	0.4534108
113	0xbf1b4e73	-0.6066658
114	0xbe9ad81e	-0.3024301
115	0xbf351faa	-0.7075144
116	0xbec398dd	-0.38202563
117	0xbeb4c1f8	-0.35304236
118	0x3e5bab01	0.21451952
119	0x3ec2bc8a	0.3803447
120	0xbe3fec46	-0.18742475
121	0xbdb06e8f	-0.086148374
122	0x3e4abd9a	0.1979889
123	0xbd1cda5d	-0.038294185
124	0x3e147412	0.14497402
125	0xbf2b7509	-0.66975456
126	0x3e1dfa8c	0.15427607
127	0x3f112862	0.56702244
128	0xbea9b6d9	-0.33147314
129	0x3ed943d9	0.42434576
130	0x3e80c0ed	0.2514719
131	0xbed296ea	-0.41130763
132	0x3e4e6f5a	0.20159665
133	0x3e42983f	0.1900339
134	0x3cb444e5	0.022005508
135	0x3ed53590	0.41642427
136	0xbea90c14	-0.33017027
137	0xbe011b1f	-0.12608002
138	0xbe13443a	-0.14381495
139	0x3eb3c631	0.35112146
140	0xbe2ce198	-0.16882932
141	0x3d9056a2	0.07047774
142	0x3d6ca6fa	0.05777643
143	0xbe905714	-0.28191435
144	0x3e91ab81	0.2845116
145	0xbeccfff7	-0.40039036
146	0xbc49c465	-0.0123148905
147	0xbe967d37	-0.29392406
148	0xbdf48120	-0.11938691
149	0xbe23f6f8	-0.1601218
150	0x3da47dbf	0.08031797
151	0x3f160d90	0.58614445
152	0x3b2a2150	0.0025959797
153	0xbefde878	-0.49591422
154	0xbe54c7d6	-0.20779356
155	0xbe42e0d1	-0.19031073
156	0xbc7fbab4	-0.015608478
157	0xbc886e42	-0.016654138
158	0x3e19b74e	0.15011331
159	0x3eb6384a	0.3558982
160	0x3eb58a96	0.35457295
161	0xbda47a05	-0.08031086
162	0xbb211c74	-0.002458361
163	0x3f1fb05c	0.6237848
164	0xbd86ecec	-0.06588158
165	0x3cfb2622	0.030657832
166	0x3f01d048	0.50708437
167	0xbe812f73	-0.25231513
168	0xbdf19a14	-0.11796966
169	0xbd7126a8	-0.058874756
170	0x3d90024e	0.070316896
171	0x3e3014af	0.1719539
172	0x3e1f84db	0.15578024
173	0xbeca2f8e	-0.39489406
174	0xbd7112a1	-0.058855657
175	0xbe562a79	-0.2091464
176	0xbda77c86	-0.08178048
177	0xbd5502b0	-0.052004516
178	0x3e6ac8e0	0.2292819
179	0xbc3c2503	-0.011483434
180	0xbd25faae	-0.04052227
181	0xbe767038	-0.24066246
182	0xbd37d674	-0.044882253
183	0xbe400081	-0.18750192
184	0x3ef42350	0.4768319
185	0xbe35a6a4	-0.1773935
186	0x3e90e506	0.2829973
187	0xbe1b7042	-0.15179542
188	0xbc53e7fe	-0.012933729
189	0x3d0dd47b	0.034626465
190	0x3d2f79a5	0.04284062
191	0xbed9f907	-0.42572805
192	0xbe977318	-0.29579997
193	0x3dfaca04	0.12245563
194	0xbe1665c7	-0.14687262
195	0xbc88563f	-0.016642688
196	0xbe4a69ba	-0.19766894
197	0x3d35c3ae	0.044376068
198	0x3e28be77	0.16478907
199	0x3f05ffe1	0.52343565
200	0x3ee1eefa	0.44127637
201	0xbf46a503	-0.7759554
202	0x3f15f562	0.5857755
203	0x3f087412	0.5330211
204	0xbeb44487	-0.35208532
205	0xbddaf037	-0.106903486
206	0x3e8563e2	0.26052767
207	0xbee0942d	-0.4386305
208	0x3bd86e14	0.006604919
209	0x3d3116e8	0.043234736
210	0xbe77f6e1	-0.2421527
211	0xbdb07e4a	-0.08617838
212	0x3e3e6389	0.18592657
213	0xbe0ea8ed	-0.13931628
214	0xbea9a0fe	-0.3313064
215	0xbda72628	-0.081615746
216	0x3def4271	0.116825946
217	0x3e11ad1b	0.14226191
218	0x3d613d39	0.054990027
219	0xbe8d2db1	-0.27573922
220	0x3f081f89	0.5317312
221	0xbe6d3763	-0.2316566
222	0xbe833609	-0.25627163
223	0x3e62adc6	0.22136602
224	0x3ee01cc8	0.43771958
225	0x3eb22c05	0.3479921
226	0x3df44959	0.119280525
227	0x3f305700	0.6888275
228	0xbda99343	-0.08280041
229	0x3b6b6e38	0.003592385
230	0xbe3a32ad	-0.18183394
231	0xbf14b039	-0.58081394
232	0xbe6957cc	-0.22787398
233	0x3f18b685	0.596535
234	0xbe62ca81	-0.22147562
235	0xbed33569	-0.41251686
236	0xbe76c3b7	-0.24098097
237	0xbe006834	-0.1253975
238	0xbe9cf368	-0.30654454
239	0xbeafc1c3	-0.34327516
240	0xbed758ec	-0.4206003
241	0x3e3c120d	0.18366261
242	0xbea7da85	-0.32783905
243	0x3dbd5cc2	0.09246208
244	0x3e0b952e	0.13631126
245	0x3ecc988d	0.39960137
246	0x3eb4bcd9	0.3530033
247	0xbea5be8b	-0.32371935
248	0x3eeee535	0.46659246
249	0xbdec07c7	-0.11524921
250	0xbe5cf200	-0.2157669
251	0x3e9f0aa6	0.31062812
252	0xbe2b85cd	-0.1675026
253	0xbe17586d	-0.14779826
254	0x3e2a8286	0.16651353
255	0xbeaeb02f	-0.34118792

transformer.layers.0.0.fn.fn.to_out.bias f4 [64]
0	0xbd3a8159	-0.04553351
1	0xbda36819	-0.079788394
2	0x3d0c71c6	0.03428819
3	0x3d882fb0	0.06649721
4	0xbe30a8fe	-0.17251965
5	0xbd9d4232	-0.076786414
6	0xbdf24818	-0.11830157
7	0xbdc35571	-0.09537781
8	0xbe71c31d	-0.23609586
9	0x3e260dae	0.16216156
10	0x3e9c5925	0.30536762
11	0xbda7b0c1	-0.0818801
12	0xbea3cbdd	-0.31991473
13	0x3d84cba2	0.064841524
14	0xbe564aa5	-0.20926912
15	0xbe46c540	-0.19411182
16	0x3ed27177	0.41102192
17	0xbeaeacba	-0.34116155
18	0x3e8eb391	0.27871373
19	0xbe52c5bb	-0.2058324
20	0xbe2ab31b	-0.16669886
21	0x3d2d87ce	0.04236584
22	0x3e821462	0.25406176
23	0xbe63bc35	-0.22239764
24	0x3e493f23	0.19652991
25	0x3e62ac08	0.22135937
26	0x3cc64da0	0.024206936
27	0x3e5bb28e	0.21454832
28	0xbd8429b2	-0.06453265
29	0xbd60803d	-0.054809798
30	0x3db7fdd0	0.08983958
31	0xbc4b610a	-0.012413273
32	0xbad9bf78	-0.0016612848
33	0x3ec3a51c	0.38211906
34	0xbe51a30d	-0.20472355
35	0x3d8bbbf7	0.06822961
36	0xbecf5df5	-0.4050137
37	0x3df03479	0.11728758
38	0x3cc1b2f3	0.0236449
39	0xbd71defb	-0.05905054
40	0xbe692d49	-0.22771181
41	0x3a89d6aa	0.0010516245
42	0xbe557acb	-0.20847623
43	0xbdf99c7e	-0.12188052
44	0x3d5bd847	0.053673055
45	0xbd84381b	-0.06456014
46	0xbd826808	-0.06367499
47	0x3e939aaf	0.28828952
48	0xbe0be154	-0.13660175
49	0xbdcac197	-0.099002056
50	0x3d64ac3b	0.055828314
51	0x3e212aa1	0.15738918
52	0xbdeca259	-0.11554403
53	0x3f21f34b	0.6326186
54	0x3eda0eb8	0.42589355
55	0x3db6182c	0.08891329
56	0xbe985a8c	-0.29756582
57	0xbdd7c12f	-0.10534894
58	0x3ec58c5d	0.3858365
59	0xbe08e19a	-0.1336731
60	0x3dba5211	0.09097684
61	0x3dd59c32	0.104301825
62	0x3e18dc74	0.14927846
63	0x3e6d5527	0.23177014

transformer.layers.0.1.fn.norm.weight f4 [64]
0	0x3f38ea43	0.72232455
1	0x3f0905eb	0.53524655
2	0x3f13c04f	0.57715315
3	0x3e9fec7d	0.31235114
4	0x3f0afa6b	0.5428836
5	0x3e8e46cb	0.27788386
6	0x3f3309d0	0.6993685
7	0x3f540781	0.8282395
8	0x3e67dff7	0.2264403
9	0x3ec52a91	0.38509038
10	0x3f024acf	0.508954
11	0x3ef090f2	0.46985584
12	0x3f50aa72	0.8151008
13	0x3f0fbd4b	0.56148213
14	0x3f2185b9	0.6309467
15	0x3ebe2e86	0.3714487
16	0x3ec70490	0.38870668
17	0x3f139944	0.5765574
18	0x3ee64c97	0.44980308
19	0x3f080c51	0.53143793
20	0x3e7cf42a	0.24702516
21	0x3edd90ea	0.43274623
22	0x3f82cb56	1.0218303
23	0x3edc1421	0.42984107
24	0x3f1c99dc	0.6117227
25	0x3ed6ca98	0.41951442
26	0x3ed24311	0.41066793
27	0x3ee2098d	0.44147912
28	0x3ef110a7	0.47083017
29	0x3f637d68	0.8886323
30	0x3ee96388	0.4558375
31	0x3e3c2f3e	0.18377396
32	0x3f07db82	0.5306932
33	0x3f1cb5f4	0.6121514
34	0x3ec5d92a	0.38642246
35	0x3ed92d76	0.42417496
36	0x3f60d116	0.8781904
37	0x3eedc2af	0.46437594
38	0x3f354037	0.7080111
39	0x3f54df0a	0.8315283
40	0x3ecbcbe2	0.39803988
41	0x3f09110d	0.5354164
42	0x3f111217	0.5666823
43	0x3ea54bf5	0.32284513
44	0x3edd28c2	0.43195158
45	0x3f4d6f21	0.80247694
46	0x3ea489ab	0.32136282
47	0x3f2cc37c	0.67485785
48	0x3f8a0a54	1.0784402
49	0x3f143b42	0.5790292
50	0x3f61aa94	0.88150907
51	0x3f414d05	0.7550815
52	0x3f28ee76	0.6598886
53	0x3f042a77	0.51627296
54	0x3f4cdb93	0.80022544
55	0x3ed854c6	0.42252177
56	0x3f32e0a1	0.69874007
57	0x3f0ea756	0.55724084
58	0x3f1ce409	0.61285454
59	0x3e907b00	0.28218842
60	0x3f18b2c8	0.596478
61	0x3f325933	0.6966736
62	0x3ef8c827	0.48590204
63	0x3f27688e	0.6539391

transformer.layers.0.1.fn.norm.bias f4 [64]
0	0xbe1675a9	-0.14693321
1	0xbe038cfd	-0.12846752
2	0xbd62b3ae	-0.055347137
3	0xbddc668a	-0.10761745
4	0x3eac8393	0.33694133
5	0xbd992fa9	-0.074797936
6	0xbd8b214d	-0.06793461
7	0xbe72e84f	-0.23721431
8	0xbdd45959	-0.10368604
9	0xbc08b2b5	-0.008343388
10	0x3d5f04f4	0.054448083
11	0xbe090e28	-0.13384306
12	0xbf07bc02	-0.5302125
13	0x3e51104f	0.20416377
14	0xbdf6a286	-0.12042718
15	0xbdbcabe5	-0.09212474
16	0x3e87b2f7	0.26503727
17	0xbe309f05	-0.17248161
18	0x3db98762	0.09059025
19	0xbdbcc54e	-0.092173204
20	0x3c02e128	0.007988252
21	0xbd388ee6	-0.045058154
22	0x3e8e3310	0.27773333
23	0xbd55fea0	-0.052244782
24	0x3e390b45	0.18070705
25	0x3b9832b3	0.0046447157
26	0x3e046a7e	0.12931249
27	0x3e8456ba	0.25847417
28	0x3db49f56	0.088194534
29	0x3d734fed	0.059402395
30	0xbd6528a1	-0.05594695
31	0xbd7f6e6b	-0.062361162
32	0xbe6756ec	-0.22591752
33	0x3e1f3771	0.15548493
34	0xbd9e1278	-0.077183664
35	0x3d874549	0.06605012
36	0xbe49f02c	-0.19720525
37	0x3e2d88bf	0.16946696
38	0x3db227a5	0.08698968
39	0x3e93f60c	0.28898656
40	0x3b9177a8	0.004439313
41	0xbe3a324e	-0.18183252
42	0xbe34c864	-0.17654568
43	0x3d66d576	0.056355916
44	0x3a78a582	0.0009485112
45	0x3df1beb2	0.1180395
46	0xbe838d69	-0.25693825
47	0x3e6773f0	0.2260282
48	0xbe7dc1ba	-0.24780932
49	0xbec63469	-0.3871186
50	0xbeb80245	-0.35939232
51	0x3ba396ca	0.0049923407
52	0xbc55f0ac	-0.013057869
53	0x3dafaa03	0.08577349
54	0x3cf24af1	0.02957675
55	0x3d4f1b94	0.05056341
56	0xbe3bece3	-0.18352084
57	0xbe6779cc	-0.22605056
58	0x3ee30ce3	0.4434577
59	0xbd9e393a	-0.07725759
60	0x3e2e9883	0.17050366
61	0x3d128b7d	0.035777558
62	0xbd849bc6	-0.06475024
63	0x3ec29719	0.38005903

transformer.layers.0.1.fn.fn.net.0.weight f4 [128, 64]
0	0x3f15305f	0.58276933
1	0xbf0a8273	-0.541053
2	0xbdc9d097	-0.098542385
3	0x3daa7193	0.08322444
4	0xbe579da7	-0.21056233
5	0x3d9d87be	0.076919064
6	0x3e0624e9	0.13100018
7	0xbecccd76	-0.40000504
8	0xbe203cf0	-0.15648246
9	0xbecf9429	-0.40542725
10	0xbeedcc8b	-0.46445116
11	0x3e30e317	0.17274128
12	0x3d719237	0.058977332
13	0x3e3f6185	0.18689544
14	0xbe07b737	-0.13253485
15	0x3c062335	0.008187105
16	0x3db808bb	0.0898604
17	0xbd3f6609	-0.046728168
18	0xbec7dfa8	-0.39037824
19	0xbd1c3e25	-0.038145203
20	0xbeecadf5	-0.4622647
21	0xbef77f77	-0.48339435
22	0xbd722fa8	-0.05912748
23	0x3f08fafc	0.5350797
24	0xbf296b41	-0.6617928
25	0x3ee9cf3c	0.4566592
26	0xbeb55e9a	-0.35423738
27	0x3e97f213	0.29676875
28	0xbea74649	-0.3267081
29	0xbe4fd36e	-0.20295498
30	0x3d60938a	0.054828204
31	0x3e281507	0.16414271
32	0x3da1664a	0.07880838
33	0x3e461d48	0.19347107
34	0xbec78acc	-0.3897308
35	0x3e939e25	0.28831592
36	0x3e8ca3a8	0.2746861
37	0xbe390d17	-0.180714
38	0x3e47beaa	0.19506326
39	0xbe7a2c55	-0.24430974
40	0xbc873fc5	-0.0165099
41	0xbe6079ce	-0.21921465
42	0x3e3c4d90	0.18388963
43	0x3f10974b	0.56480855
44	0x3eb4d567	0.35319063
45	0x3ee9c8d0	0.4566102
46	0x3dd15a04	0.10222247
47	0xbe8d363a	-0.27580434
48	0x3f1b719b	0.60720223
49	0x3e98d5d6	0.29850644
50	0x3e413472	0.18867663
51	0x3e84f592	0.25968605
52	0x3e8ae950	0.27131128
53	0x3e299036	0.16558918
54	0xbda3b694	-0.079938084
55	0xbead5da0	-0.33860493
56	0x3da13280	0.0787096
57	0x3e5739ef	0.21018194
58	0xbe86a23f	-0.2629566
59	0xbe0e3262	-0.13886407
60	0xbd2798de	-0.04091727
61	0x3eb33ccf	0.3500733
62	0x3ce451dd	0.027871067
63	0xbe2bcade	-0.16776606
64	0xbda34330	-0.079717994
65	0xbe203eb6	-0.15648922
66	0xbe1014ff	-0.1407051
67	0x3d827075	0.06369106
68	0xbead09a0	-0.33796406
69	0x3e2a30de	0.16620204
70	0x3e94517e	0.28968424
71	0x3f2ceae8	0.6754594
72	0xbea67951	-0.32514432
73	0x3e222c59	0.1583723
74	0xbf198676	-0.59970796
75	0xbdc0481e	-0.09388755
76	0x3f0cf668	0.55063486
77	0xbed6a433	-0.4192215
78	0x3c07f483	0.008298042
79	0x3d99a942	0.075029865
80	0x3e71c99e	0.23612067
81	0xbd2da3ad	-0.04239242
82	0xbecdb665	-0.40178218
83	0x3e459ae5	0.19297369
84	0xbd29b536	-0.04143258
85	0xbdd7c7ae	-0.10536133
86	0xbe095e5d	-0.13414903
87	0xbe3b7419	-0.18306006
88	0xbc41a310	-0.011818662
89	0x3d9bbddb	0.076045714
90	0x3e92fe58	0.28709674
91	0xbe1d3b3d	-0.15354629
92	0x3f10a2a8	0.56498194
93	0xbe2f1770	-0.17098784
94	0xbebf9a03	-0.3742219
95	0x3d2e41a3	0.042543065
96	0x3f010e36	0.5041231
97	0xbeac4fb5	-0.33654562
98	0x3e8dab4f	0.2766976
99	0xbf24e814	-0.64416623
100	0x3e34ff8d	0.1767561
101	0xbde0ebc5	-0.109824695
102	0xbe60f893	-0.21969824
103	0x3ee650ec	0.44983613
104	0x3f14ff5c	0.5820215
105	0x3e425e87	0.18981372
106	0xbebb547f	-0.36587903
107	0x3b53a4f2	0.003229436
108	0x3ea11ffa	0.3146971
109	0x3e963062	0.29333788
110	0x3ec0f9e3	0.37690648
111	0x3e6f13eb	0.23347442
112	0x3c88261f	0.01661974
113	0x3d87b99e	0.066272005
114	0x3f53b5b2	0.8269912
115	0x3e116ba7	0.14201222
116	0xbc4ee64e	-0.012628151
117	0x3e418724	0.18899208
118	0xbebf3752	-0.37346894
119	0x3e134263	0.14380793
120	0xbe19debe	-0.15026376
121	0xbe160841	-0.14651586
122	0xbf395f38	-0.7241092
123	0xbc33cfe3	-0.010974857
124	0xbe33ac2a	-0.17546144
125	0xbedc0c54	-0.42978156
126	0x3d98fe47	0.074703746
127	0xbeecb8cd	-0.46234742
128	0xbd9a8fa3	-0.07546928
129	0xbf093c56	-0.5360769
130	0xbd92ec2c	-0.071739525
131	0x3d178a02	0.03699685
132	0x3e377693	0.17916326
133	0x3e1a420f	0.15064262
134	0xbe6290be	-0.22125527
135	0x3e6063f1	0.21913125
136	0x3d186654	0.037206963
137	0xbe5225c8	-0.20522225
138	0xbf554adc	-0.8331735
139	0x3e7a4089	0.2443868
140	0xbdff9210	-0.12479031
141	0xbed0b858	-0.40765643
142	0x3da927e8	0.08259565
143	0x3e34a49e	0.17640921
144	0xbdff092e	-0.12452923
145	0x3d084485	0.03326847
146	0xbe57f251	-0.2108853
147	0x3f09f200	0.5388489
148	0xbdf2be01	-0.118526466
149	0x3dd5284d	0.104080774
150	0xbd461ced	-0.04836743
151	0x3df30ee1	0.11868072
152	0xbe809e02	-0.2512055
153	0xbe25c583	-0.16188626
154	0xbe0ceade	-0.1376147
155	0x3dd3049e	0.10303615
156	0x3e996040	0.29956245
157	0x3bffbc01	0.0078043942
158	0xbebb7ed2	-0.36620194
159	0xbd77ac72	-0.06046719
160	0x3f29799e	0.662012
161	0xbef324b5	-0.47488943
162	0x3f1183b0	0.56841564
163	0xbc5f8864	-0.013643358
164	0x3ef02811	0.46905568
165	0xbe071e3a	-0.13195124
166	0x3e8ecc18	0.27890086
167	0xbdb1f372	-0.08689012
168	0xbef41f8d	-0.4768032
169	0xbeb1519a	-0.3463257
170	0xbf201623	-0.6253378
171	0xbeffbc2f	-0.4994826
172	0x3eefd47a	0.46841794
173	0x3f1c3dc0	0.61031723
174	0xbd16b77b	-0.036796074
175	0x3ed0cdd2	0.40782028
176	0x3afa058d	0.0019075141
177	0x3eb73929	0.35785797
178	0x3b0094e2	0.001961999
179	0x3e9b5588	0.30338693
180	0xbe873acc	-0.26412046
181	0xbe3d6765	-0.18496473
182	0xbdcc70b0	-0.09982431
183	0x3edbd466	0.42935485
184	0x3e8de339	0.2771242
185	0x3ed8d8b6	0.42352837
186	0xbdd7e2f5	-0.105413355
187	0x3e9362f6	0.2878644
188	0xbec909ad	-0.39265195
189	0x3d979897	0.07402151
190	0xbdee1b7a	-0.116263345
191	0xbba757f4	-0.0051069204
192	0x3eb2b0c3	0.34900483
193	0x3e38ceed	0.18047686
194	0xbf0554e4	-0.5208266
195	0x3cc8db60	0.024518669
196	0x3dea566d	0.11442266
197	0x3f247805	0.64245635
198	0x3f2df8f1	0.6795798
199	0xbdc3ddcd	-0.095637895
200	0x3d78d099	0.06074581
201	0xbf258376	-0.6465372
202	0xbdc4d5e6	-0.096111104
203	0x3ed3c715	0.41362825
204	0xbdc70230	-0.09717214
205	0xbf62626a	-0.8843142
206	0x3e87caa0	0.26521778
207	0x3e5a6020	0.21325731
208	0xbe5d07f5	-0.21585067
209	0xbe8e78b9	-0.2782648
210	0x3e233e23	0.15941672
211	0x3f378533	0.7168762
212	0x3f261c46	0.6488689
213	0x3e64c2e3	0.22339968
214	0x3ecaefa0	0.39635944
215	0x3e6747fa	0.2258605
216	0xbf614ad8	-0.8800483
217	0xbf079d86	-0.52974737
218	0xbeb66559	-0.35624197
219	0xbf1899d0	-0.596097
220	0x3e399a8c	0.18125361
221	0xbf01ea8d	-0.5074852
222	0x3e6554cf	0.22395633
223	0xbc9bbced	-0.019010985
224	0x3e8d1e74	0.27562296
225	0xbe09c723	-0.13454871
226	0x3cfb985a	0.030712295
227	0xbebc8c08	-0.36825585
228	0xbe073b94	-0.13206321
229	0xbdabf813	-0.08396926
230	0x3e07ef69	0.13274921
231	0x3f08cee2	0.5344068
232	0x3e68057f	0.22658347
233	0xbdc7a2ed	-0.097478725
234	0x3e8b6ce4	0.27231514
235	0xbd8491d3	-0.06473126
236	0x3db35af7	0.087575845
237	0xbe0f8505	-0.14015587
238	0x3dfb5574	0.12272158
239	0x3f06eace	0.52702034
240	0xbe91d208	-0.28480554
241	0xbc227cb4	-0.009917427
242	0xbd62f068	-0.05540505
243	0x3ebe32ef	0.37148234
244	0x3d828bc1	0.06374312
245	0x3d3d2d88	0.046186
246	0x3dd0ebcf	0.10201227
247	0xbe8b86c0	-0.27251244
248	0xbdc57683	-0.09641745
249	0x3e7efbd8	0.24900758
250	0x3c1a814c	0.009430241
251	0x3ea2ff9d	0.31835642
252	0xbed724e7	-0.42020342
253	0xbf702490	-0.9380579
254	0xbe0ba103	-0.1363564
255	0xbca903ee	-0.020631757

transformer.layers.0.1.fn.fn.net.0.bias f4 [128]
0	0xbedc1c9c	-0.42990577
1	0xbe3f614f	-0.18689464
2	0xbe40630e	-0.18787786
3	0xbf007921	-0.5018483
4	0xbe94eb75	-0.2908589
5	0xbe5ef9cd	-0.21774979
6	0xbed0d106	-0.40784472
7	0xbed7c9a8	-0.4214604
8	0xbe765263	-0.24054866
9	0xbed5fb02	-0.41793066
10	0xbe8cc50e	-0.2749409
11	0xbe67debb	-0.22643559
12	0xbe9c6f7c	-0.30553806
13	0xbe9b8d11	-0.30381063
14	0xbeb924d3	-0.36160907
15	0xbeacc580	-0.3374443
16	0xbea31854	-0.31854498
17	0xbe388f4a	-0.1802341
18	0xbeb5dd2b	-0.355203
19	0xbeaad71a	-0.33367234
20	0xbeaa57c3	-0.33270082
21	0xbe96cdd7	-0.29453918
22	0xbe9467c5	-0.2898542
23	0xbf00ba8f	-0.50284666
24	0xbe9c3fac	-0.30517328
25	0xbea29e78	-0.31761527
26	0xbeb21fb8	-0.34789824
27	0xbeb5406b	-0.3540071
28	0xbec6f38b	-0.38857684
29	0xbe819306	-0.25307482
30	0xbe5e7fe4	-0.21728474
31	0xbe62886c	-0.22122353
32	0xbe9a27be	-0.30108446
33	0xbeb40ae6	-0.35164565
34	0xbedc787b	-0.4306067
35	0xbe96096b	-0.2930406
36	0xbdbeb3b0	-0.093116164
37	0xbe8f21c1	-0.2795544
38	0xbeaa6a80	-0.33284378
39	0xbe6a5868	-0.22885287
40	0xbe62251d	-0.2208447
41	0xbdab05fa	-0.08350749
42	0xbdc1109a	-0.094269946
43	0xbde143cd	-0.1099926
44	0xbe4d309d	-0.20038076
45	0xbf03f160	-0.51540184
46	0xbece2d24	-0.40268815
47	0xbee652c4	-0.4498502
48	0xbea1f305	-0.31630722
49	0xbeaf2e43	-0.34214982
50	0xbece32e6	-0.40273207
51	0xbe571747	-0.21004973
52	0xbefb8ed1	-0.49132398
53	0xbea9656d	-0.33085194
54	0xbe9c6238	-0.30543685
55	0xbec29dd8	-0.3801105
56	0xbe40a3a9	-0.18812431
57	0xbebd8ac7	-0.3701994
58	0xbf1cbe7c	-0.61228156
59	0xbe533977	-0.2062739
60	0xbed1d7b0	-0.4098487
61	0xbf173850	-0.590703
62	0xbf1e5e0b	-0.6186225
63	0xbea18cc4	-0.31552708
64	0xbece6f11	-0.40319112
65	0xbe91bf8e	-0.28466457
66	0xbe603998	-0.2189697
67	0xbe38b9ee	-0.18039677
68	0xbec50e87	-0.38487646
69	0xbe9cb3c3	-0.30605897
70	0xbf04c71c	-0.51866317
71	0xbee63c4c	-0.44967878
72	0xbed00c68	-0.40634465
73	0xbe79873e	-0.24367997
74	0xbe233a2b	-0.15940158
75	0xbe1e33fe	-0.15449521
76	0xbf0d559a	-0.5520874
77	0xbef3e9a5	-0.47639194
78	0xbeb7a66e	-0.35869163
79	0xbecf262b	-0.40458807
80	0xbf06bc56	-0.5263113
81	0xbeb01b03	-0.34395608
82	0xbecd7145	-0.4012548
83	0xbe08567a	-0.13314238
84	0xbef30bf3	-0.47470054
85	0xbe9e05af	-0.3086371
86	0xbed61c91	-0.4181867
87	0xbf182fa7	-0.5944771
88	0xbe98aa9c	-0.29817665
89	0xbeb12b5b	-0.3460339
90	0xbeadb968	-0.33930516
91	0xbec249c4	-0.37946904
92	0xbe99b2b3	-0.3001915
93	0xbea3ca4b	-0.31990275
94	0xbecf877d	-0.40533057
95	0xbe85da84	-0.26143277
96	0xbe8605f1	-0.26176408
97	0xbec0a25d	-0.37623873
98	0xbe8e1430	-0.27749777
99	0xbea6dd81	-0.3259087
100	0xbe4a68e2	-0.19766572
101	0xbe4ea9f2	-0.20182016
102	0xbead54a6	-0.33853644
103	0xbeecfecb	-0.46288142
104	0xbec9ed24	-0.39438736
105	0xbedcf38b	-0.4315456
106	0xbebc8cfd	-0.36826316
107	0xbeb94965	-0.36188808
108	0xbebc24fe	-0.36746973
109	0xbebc3ff6	-0.36767548
110	0xbee71488	-0.45132852
111	0xbecc47e8	-0.3989861
112	0xbe59946a	-0.21248022
113	0xbe0bb861	-0.13644554
114	0xbe93c8d8	-0.2886417
115	0x3cfc2a46	0.030781876
116	0xbe903c44	-0.2817098
117	0xbed3940a	-0.41323882
118	0xbe6d872d	-0.23196097
119	0xbec46e90	-0.38365602
120	0xbeff0599	-0.49808958
121	0xbe8d0a9c	-0.27547157
122	0xbe610acf	-0.2197678
123	0xbf138200	-0.5762024
124	0xbee865e5	-0.4539024
125	0xbebe7f8a	-0.3720668
126	0xbe31f06d	-0.17376871
127	0xbe8dd066	-0.27698058
